code/module_bottleneck_params.pth (torch, 132529 bytes, 1 tensors)

weight f4 [64, 512, 1, 1]
0.005842568 0.059873834 0.04420234 -0.036098998 -0.06789662 -0.08200573 0.017881451 -0.03450092
-0.019173855 0.04245602 -0.014543804 -0.025445893 0.015731769 -0.01297957 -0.010249841 -0.050268866
0.10800378 -0.113898955 0.13192512 -0.11539161 0.014578266 0.009441514 -0.032720104 -0.04329345
-0.039205745 0.12513031 0.025896288 0.022133006 0.02472818 0.021733213 0.07663951 -0.01088964
-0.022901967 0.00324298 0.025586128 0.10366312 -0.0049557826 0.0053159827 0.050342295 -0.11304534
-0.050826624 -0.2848681 -0.03623862 0.04768898 0.052834418 -0.0003490176 0.08106051 0.028994117
-0.051955827 0.010678553 0.012613235 -0.022734497 0.03802715 0.02063832 -0.28485614 -0.0017375428
0.0045229183 -0.14654757 -0.010550999 -0.20508334 -0.010914305 -0.0076365964 0.072947025 0.040411368
0.15628776 -0.025947735 -0.072435476 -0.035732076 0.015054402 -0.027478423 0.053009156 -0.032962617
0.03347769 0.04831357 0.051533904 0.052302316 -0.0035563686 -0.0005393413 -0.07522022 -0.020729221
-0.12461708 -0.008937427 0.085768975 -0.031647388 -0.0053993003 -0.051580463 0.0054284735 0.025550652
-0.0047583664 0.03816168 -0.05812684 -0.012021031 -0.0654303 -0.0022305658 -0.006483513 -0.013845451
0.0007151384 -0.02215648 0.03406864 0.023169223 0.029021515 -0.09625353 -0.14373243 -0.02413601
-0.076279774 0.017824436 -0.25483075 -0.0029635793 -0.010089745 0.026007928 -0.01963372 0.008217363
0.088950284 -0.123165116 0.1308299 0.04353844 -0.029236408 -0.00094082946 0.06203781 -0.03968089
-0.14015622 0.030316638 0.11632009 -0.071229696 0.011969393 -0.017843327 -0.027718248 0.03639165
0.022650473 0.06362697 -0.023857089 0.04759331 0.06268711 -0.057802003 0.012897695 -0.13792197
0.045632437 -0.05989031 -0.06925917 0.040572044 -0.05694541 -0.028595047 0.015299922 0.015690194
-0.093748726 -0.09032545 0.004342635 0.053181868 -0.03542199 0.071036026 0.033713754 -0.014133654
0.07017459 -0.14502208 -0.0059983344 -0.03651069 0.10890918 0.0032392456 -0.0005673976 0.02115644
-0.0020959314 -0.012163748 0.14815019 0.012577245 -0.0011850409 -0.05503404 0.021788493 0.0581217
-0.13048588 -0.016797 0.004686026 -0.010198977 0.015745914 0.043526463 0.009042955 0.044674292
0.032972284 0.10941421 -0.03246559 -0.0041221036 0.060950857 -0.020199586 -0.04100404 0.17133276
0.013437675 -0.020226538 0.002369856 0.0405982 0.041228786 0.067299664 -0.0030346133 0.041930385
0.06486971 0.04205714 0.017470185 0.0059529967 -0.0008038837 0.061713997 0.0504404 -0.13423687
-0.00042120513 0.027407572 0.04530375 0.012710196 0.033700284 -0.0046464526 -0.20374157 0.0034298855
-0.0014845046 0.19412254 0.014334318 -0.016297696 0.0071767634 -0.087745756 0.020202745 0.02455944
-0.066160165 0.10978468 -0.0034051745 0.047953717 -0.06607656 0.030897306 -0.05839365 0.03528049
0.07531563 -0.024803387 -0.057445247 0.048467223 -0.018916493 -0.10215359 -0.05094243 0.058910564
-0.027575482 -0.012638156 0.023328599 -0.09173581 -0.0983077 0.04313548 -0.07000592 0.027051622
0.25027898 -0.25760633 -0.1569762 0.012016738 -0.17168866 0.0031337317 -0.11931552 -0.020136835
0.030843157 -0.018214446 0.060516898 0.0046873097 -0.1117938 0.007903171 -0.022605965 -0.008371029
00000000: 0373 bf3b 443e 753d 830d 353d 8bdc 13bd
00000010: 620d 8bbd 9ff2 a7bd 1f7c 923c d650 0dbd
00000020: 7d12 9dbc 5de6 2d3d 2349 6ebc e873 d0bc
00000030: e9df 803c 43a8 54bc f3ee 27bc bae6 4dbd
00000040: 1631 dd3d db43 e9bd 6117 073e 7052 ecbd
00000050: aed9 6e3c 94b0 1a3c 8405 06bd 7954 31bd
00000060: 3496 20bd 2922 003e 7424 d43c 4750 b53c
00000070: c192 ca3c da09 b23c 2df5 9c3d 766a 32bc
00000080: e89c bbbc 2d88 543b 009a d13c 544d d43d
00000090: 1e64 a2bb b231 ae3b b933 4e3d 5184 e7bd
000000a0: 942f 50bd 3bda 91be f26e 14bd 8555 433d
000000b0: e768 583d 59fc b6b9 0d03 a63d 1285 ed3c
000000c0: a2cf 54bd 19f5 2e3c bea7 4e3c b23d babc
000000d0: 5bc2 1b3d b211 a93c aad8 91be 43be e3ba
000000e0: fd34 943b 9110 16be 19de 2cbc 5e01 52be
000000f0: ead1 32bc 6a3c fabb 4065 953d 6486 253d
00000100: e609 203e 5890 d4bc 0d59 94bd cc5b 12bd
00000110: bda6 763c 6e1a e1bc 2120 593d cf03 07bd
00000120: e71f 093d 73e4 453d 3715 533d f43a 563d
00000130: f711 69bb 9562 0dba 0f0d 9abd 54d0 a9bc
00000140: 3d37 ffbd 496e 12bc a5a7 af3d b1a0 01bd
00000150: 9dec b0bb 0946 53bd 56e1 b13b 9a4f d13c
00000160: 12ec 9bbb 6c4f 1c3d 6916 6ebd dcf3 44bc
00000170: 5200 86bd af2e 12bb a673 d4bb 08d8 62bc
00000180: 2078 3b3a 8281 b5bc 8f8b 0b3d 62cd bd3c
00000190: 87be ed3c 9220 c5bd 982e 13be e2b8 c5bc
000001a0: 9238 9cbd 8d04 923c 2d79 82be 9c38 42bb
000001b0: 754f 25bc 940e d53c e5d6 a0bc 1ea2 063c
000001c0: 912b b63d fe3d fcbd 46f8 053e 5d55 323d
000001d0: 3181 efbc ffa1 76ba 5c1b 7e3d 6e88 22bd
000001e0: 1d85 0fbe 995a f83c 3a39 ee3d e0e0 91bd
000001f0: 461b 443c 2b2c 92bc 6111 e3bc 690f 153d
00000200: 7c8d b93c db4e 823d f16f c3bc 34f1 423d
00000210: 1962 803d cbc1 6cbd db50 533c 6b3b 0dbe
00000220: 14e9 3a3d 8b4f 75bd c0d7 8dbd df2e 263d
00000230: 973f 69bd 2940 eabc 86ac 7a3c b988 803c
00000240: 55ff bfbd 8dfc b8bd aa4c 8e3b 3bd5 593d
00000250: a616 11bd 567b 913d 6f17 0a3d d790 67bc
00000260: b2b7 8f3d ab80 14be ad8d c4bb 3c8c 15bd
00000270: c70b df3d 8649 543b 69bd 14ba 4550 ad3c
00000280: e55b 09bb 754a 47bc afb4 173e ca10 4e3c
00000290: 6053 9bba 606b 61bd c87d b23c 0511 6e3d
000002a0: 179e 05be dd99 89bc 3c8d 993b 9c19 27bc
000002b0: 93fd 803c ce48 323d e728 143c 64fc 363d
000002c0: f20d 073d 8f14 e03d a3fa 04bd b612 87bb
000002d0: 9ba7 793d 9a79 a5bc daf3 27bd db71 2f3e
000002e0: b229 5c3c 20b2 a5bc 964f 1b3b 4c4a 263d
000002f0: 84df 283d 68d4 893d 5de0 46bb 32bf 2b3d
00000300: 69da 843d 1c44 2c3d a21d 8f3c 5b11 c33b
00000310: b9bb 52ba d1c7 7c3d 989a 4e3d 6475 09be
00000320: 32d5 dcb9 d885 e03c 6d90 393d 6d3e 503c
00000330: 4f09 0a3d 4541 98bb a1a1 50be eec7 603b
00000340: b593 c2ba 0fc8 463e 7dda 6a3c bf82 85bc
00000350: 0e2b eb3b 0cb4 b3bd 3a80 a53c e130 c93c
00000360: fb7e 87bd cad6 e03d 5929 5fbb 1e6b 443d
00000370: 2653 87bd 591c fd3c 2e2e 6fbd 4682 103d
00000380: 153f 9a3d 7930 cbbc b54b 6bbd 9185 463d
00000390: c3f6 9abc e735 d1bd 02a9 50bd 344c 713d
000003a0: fae5 e1bc 4510 4fbc 9e1b bf3c fcdf bbbd
000003b0: 8c55 c9bd d4ae 303d 445f 8fbd 5d9b dd3c
000003c0: 9124 803e fae4 83be 5ebe 20be dae1 443c
000003d0: 27cf 2fbe 4b5f 4d3b b25b f4bd 01f6 a4bc
000003e0: caaa fc3c 7636 95bc 91e0 773d 0198 993b
000003f0: 26f4 e4bd 4d7c 013c 2530 b9bc a426 09bc
